tour-travels-customer-churn-prediction.tflite (tflite, 6568 bytes, 5 tensors)

arith.constant f4 [64, 6]
0	0xbcd95b28	-0.026532724
1	0x3e9fa057	0.31177017
2	0x3e66ca13	0.22538023
3	0x3e82004e	0.25390857
4	0xbca6969a	-0.020335484
5	0x3e755ed4	0.23961955
6	0xbb9851fb	-0.0046484447
7	0xbdb549a3	-0.08851936
8	0x3e958d31	0.29209283
9	0xbd5b7134	-0.053574756
10	0x3e82dfe4	0.2556144
11	0x3d42ec08	0.04758838
12	0x3e234705	0.1594506
13	0xbe812f10	-0.25231218
14	0x3e6d1f6a	0.23156515
15	0xbe54730a	-0.20747009
16	0xbe739adc	-0.23789543
17	0xbdc6df27	-0.09710532
18	0xbe3bbe54	-0.18334323
19	0xbe4c6d5b	-0.19963591
20	0x3e5e321c	0.21698803
21	0x3e92b030	0.28650045
22	0x3def7bdd	0.11693547
23	0xbdbbc71e	-0.09168838
24	0x3e2a4a23	0.16629843
25	0xbdacadcc	-0.084315866
26	0xbd37e75e	-0.044898383
27	0xbed9d589	-0.42545727
28	0xbd843959	-0.06456251
29	0x3bd0b7eb	0.006369581
30	0x3e94fbff	0.29098508
31	0x3d4a7868	0.049431235
32	0xbd1fa6d5	-0.038977463
33	0xbe453428	-0.19258177
34	0xbed8f3f9	-0.42373636
35	0x3c5587b0	0.013032839
36	0xbec16e6c	-0.37779558
37	0x3d170f79	0.03687999
38	0x3dd50e05	0.10403065
39	0xbd3e349f	-0.046436902
40	0xbe6626be	-0.22475716
41	0xbe354b8a	-0.17704597
42	0xbc4f3815	-0.012647648
43	0xbe5f1475	-0.21785147
44	0xbe6f03ff	-0.23341368
45	0x3da9ed88	0.082972586
46	0xbdbf9ef1	-0.093564875
47	0x3e317f92	0.1733382
48	0x3dbbad51	0.09163917
49	0xbd76642a	-0.060154118
50	0xbeba5cbc	-0.36398876
51	0xbe2db7b0	-0.16964602
52	0x3e4c4ca3	0.1995111
53	0xbdeea94c	-0.116533846
54	0x3dc08a91	0.094014294
55	0x3e38f30d	0.18061467
56	0x3e97dd9c	0.29661262
57	0x3e2c642f	0.16835092
58	0xbe3f5e9b	-0.18688433
59	0xbea74d70	-0.32676268
60	0x3d72f73b	0.05931781
61	0xbe2905df	-0.16506146
62	0x3dbf8f4d	0.09353504
63	0xbf104e18	-0.5636916
64	0xbd83ca56	-0.06435077
65	0x3e8089cf	0.2510514
66	0x3ea1d26e	0.31605858
67	0x3d861cdd	0.06548474
68	0xbe0cc328	-0.13746321
69	0xbc38a382	-0.011269452
70	0xbda82dc0	-0.08211851
71	0x3d8af61a	0.067852214
72	0x3dff127d	0.12454698
73	0x3db828f4	0.08992186
74	0x3e231b5c	0.15928406
75	0xbcae1ba1	-0.021253409
76	0xbe72e5d1	-0.2372048
77	0x3d6061e3	0.054780852
78	0x3e532b09	0.20621885
79	0xbe49cd91	-0.19707324
80	0x3e3391bd	0.17536063
81	0xbd8b909b	-0.06814691
82	0x3d6a6892	0.057228632
83	0xbe78b2f9	-0.24287023
84	0xbe907818	-0.28216624
85	0xbd0f407a	-0.0349736
86	0xbe5e477b	-0.21706955
87	0xbe29e74f	-0.16592143
88	0x3cc012bb	0.023446431
89	0xbd0d0ae0	-0.0344342
90	0xbef7fa04	-0.48432934
91	0x3e9f4e4f	0.31114432
92	0x3e865d7a	0.26243192
93	0xbd6d989b	-0.058006864
94	0xbe5a594c	-0.21323127
95	0xbd9a9c80	-0.07549381
96	0x3e131d71	0.143667
97	0x3dd66b7a	0.10469718
98	0xbe27cb5c	-0.16386169
99	0x3d88ad36	0.06673662
100	0xbe97cf66	-0.2965042
101	0x3e166e2b	0.14690463
102	0x3e4faf31	0.20281674
103	0xbc830da0	-0.015997708
104	0xbde4e9dc	-0.11177418
105	0x3ca37f8f	0.019958286
106	0xbeca6c2a	-0.39535648
107	0xbe355c9d	-0.1771111
108	0x3cb33217	0.02187447
109	0xbd49eaf1	-0.049296323
110	0x3eb5b618	0.3549049
111	0xbd04f868	-0.03246346
112	0x3e877905	0.26459518
113	0x3b68a761	0.0035500156
114	0x3df167bc	0.11787364
115	0xbc39b1d1	-0.011333899
116	0x3e64057f	0.22267722
117	0x3e253d83	0.16136746
118	0xbe872617	-0.26396248
119	0xbe81b589	-0.25333813
120	0xbe299d3b	-0.16563885
121	0x3e8dfdc4	0.2773267
122	0xbe2cd7bd	-0.16879173
123	0x3dde868d	0.10865507
124	0x3e1f2b4d	0.15543862
125	0x3d2b5a0b	0.04183392
126	0x3df8241b	0.121162616
127	0x3e5134f3	0.20430355
128	0xbeb7df58	-0.35912585
129	0x3dc423a3	0.0957711
130	0x3e3af113	0.18256025
131	0x3da631de	0.0811498
132	0x3e8e172d	0.27752057
133	0x3dda066a	0.10645755
134	0x3ceff7de	0.029292997
135	0xbe92a140	-0.2863865
136	0xbea921ee	-0.330337
137	0x3da817ce	0.082076654
138	0x3ed3cd72	0.4136768
139	0xbd39b509	-0.045338664
140	0xbd3a0251	-0.045412365
141	0x3e814d66	0.25254363
142	0x3e2c42e7	0.16822396
143	0x3e5a8e79	0.21343412
144	0x3e1ab9e4	0.15109974
145	0x3d94a1b7	0.07257407
146	0x3e6f13df	0.23347424
147	0xbe817eec	-0.25292146
148	0xbe51c0d7	-0.20483719
149	0xbe0b5086	-0.13604936
150	0x3cf3569b	0.029704383
151	0x3e8f1039	0.27942064
152	0xbd6a8115	-0.05725201
153	0xbbc5495e	-0.006020709
154	0x3dbdd88e	0.0926982
155	0x3e347e9c	0.17626423
156	0xbd49a65f	-0.04923093
157	0x3e7603c2	0.24024871
158	0x3e423e1b	0.18969004
159	0x3e13795c	0.14401764
160	0xbd958854	-0.07301393
161	0xbe3de373	-0.18543796
162	0x3e9c6bf9	0.30551127
163	0x3d77073a	0.060309626
164	0x3d86027a	0.06543441
165	0x3d5f9f49	0.054595266
166	0xbed5a707	-0.41728994
167	0xbd10bd45	-0.03533675
168	0xbea3e761	-0.32012466
169	0xbd2e04ad	-0.042484928
170	0xbdae49cf	-0.085101716
171	0x3dba32da	0.090917304
172	0x3e1c8e97	0.15288769
173	0xbeac01e4	-0.33595192
174	0x3d71ea12	0.059061117
175	0x3e856639	0.26054552
176	0xbe851e3e	-0.25999635
177	0x3d237d41	0.039914373
178	0xbc40d5bc	-0.011769708
179	0xbdc17b99	-0.094474025
180	0xbe475a1b	-0.19467966
181	0xbe6da70c	-0.23208255
182	0xbdbb3fa2	-0.09142996
183	0x3ddfe3d8	0.109321296
184	0xbd9215e9	-0.07133085
185	0x3cb0cf34	0.021583177
186	0x3b1af850	0.002364654
187	0xbe986f47	-0.29772398
188	0x3e9959e3	0.2995139
189	0x3e9ac7fb	0.30230698
190	0x3cf23433	0.029565906
191	0x3e42a38f	0.19007705
192	0xbe38cd65	-0.18047102
193	0xbd2ca72b	-0.04215161
194	0x3d99e227	0.07513838
195	0x3e8340e8	0.25635457
196	0x3e2fe6f8	0.17177951
197	0xbdd59235	-0.104282774
198	0xbe08737d	-0.13325305
199	0xbde3082a	-0.110855415
200	0xbd33b7c5	-0.04387643
201	0x3e4b7386	0.19868287
202	0x3cd3e18b	0.025864383
203	0x3e2fee47	0.1718074
204	0x3db501d0	0.08838236
205	0x3dd12526	0.102121636
206	0x3ea4fb33	0.322229
207	0x3e3cae91	0.18425967
208	0xbe4724dd	-0.19447656
209	0x3cb16411	0.02165416
210	0xbe0913b7	-0.13386427
211	0x3d9e145b	0.07718726
212	0xbd838ff8	-0.06423944
213	0xbda9367d	-0.08262346
214	0x3dba765f	0.09104609
215	0xbe0d45fc	-0.13796228
216	0xbedfdb9e	-0.43722242
217	0x3d3e2ea6	0.046431206
218	0x3d643725	0.055716652
219	0xbd2266d3	-0.039648842
220	0xbc29e7e5	-0.010370229
221	0x3b63abf1	0.0034739936
222	0xbe9009f2	-0.28132588
223	0xbc74925a	-0.014927471
224	0x3ea5b649	0.32365635
225	0x3d033f3e	0.032042734
226	0xbe0d428b	-0.13794915
227	0x3d97a29a	0.07404061
228	0x3d0ebf88	0.034850627
229	0xbe80164a	-0.25017005
230	0x3d4ff5cc	0.05077152
231	0xbe2474fa	-0.16060248
232	0x3e49b849	0.19699205
233	0x3e16d055	0.1472791
234	0x3b18df99	0.0023326634
235	0x3eb448e7	0.3521187
236	0x3ed9c4f7	0.42533085
237	0xbea2ed95	-0.31821886
238	0x3e726ece	0.23675081
239	0xbd3311a6	-0.043718003
240	0x3e500dec	0.20317811
241	0xbe9d0281	-0.30665973
242	0xbcc2d905	-0.023785124
243	0xbe9e786f	-0.3095126
244	0xbc8be099	-0.01707487
245	0x3ca69915	0.020336667
246	0x3a27e920	0.0006405283
247	0x3dac069e	0.083997
248	0xbea1a988	-0.31574655
249	0xbe82f7ec	-0.25579774
250	0xbe310a62	-0.17289117
251	0xbe20a06e	-0.15686199
252	0xbd301c5c	-0.042995796
253	0xbe1887ea	-0.14895597
254	0xbe1881f0	-0.14893317
255	0xbe8eace8	-0.27866292

arith.constant1 f4 [64]
0	0xbe043a3c	-0.1291284
1	0xbe09cca3	-0.13456969
2	0x3e426aae	0.18986008
3	0x3d557dae	0.05212181
4	0x3cd957ec	0.026531182
5	0x3d807e9a	0.06274147
6	0xbdd5cb78	-0.10439199
7	0x3ccb3d1b	0.02480941
8	0xbdce7e24	-0.10082653
9	0xbd56d5ce	-0.052449994
10	0x3c45422c	0.012039702
11	0x3d2a8ab4	0.041636184
12	0x3df9bce7	0.121942334
13	0x3e00a46b	0.1256272
14	0x3d12c972	0.035836644
15	0xbdf04d0c	-0.117334455
16	0x3d3de534	0.046361163
17	0xbd4b433b	-0.049624663
18	0xbe2fae0d	-0.17156239
19	0x3d4362d9	0.04770169
20	0xbd6dbdc7	-0.058042314
21	0xbd85e597	-0.065379314
22	0x3c6f4d6e	0.014605863
23	0xbdc88a84	-0.09792045
24	0xbd60b3d6	-0.054859005
25	0xbd607407	-0.054798152
26	0xbd5532b7	-0.05205032
27	0x3d997482	0.07492925
28	0xbc0d2916	-0.008615753
29	0xbda7b9ee	-0.0818976
30	0xbd946aee	-0.07246958
31	0x3d6d62c3	0.057955515
32	0xba0fdcdb	-0.0005487927
33	0x3b99ccdc	0.0046936106
34	0xbe1a0b3d	-0.1504335
35	0xbd5fc447	-0.054630544
36	0xbe80b48d	-0.2513775
37	0xbd89a89d	-0.067216136
38	0x3d063cda	0.032772876
39	0xbc37ecb6	-0.01122587
40	0xbce840d0	-0.028351218
41	0xbc0f04c2	-0.008729162
42	0x3d57aead	0.05265682
43	0xbdff0742	-0.12452556
44	0x3d979ad7	0.0740258
45	0xbdc5ce16	-0.096584484
46	0xbd0195a4	-0.03163685
47	0x3e0b85f1	0.13625313
48	0x3da16dab	0.07882246
49	0xbdb68921	-0.08912874
50	0xbd85f52c	-0.065409034
51	0xbcbc299c	-0.02296906
52	0x3c909121	0.017647328
53	0x3a9c0130	0.0011902209
54	0x3d048723	0.03235544
55	0x3c548c2c	0.012972873
56	0x3e192303	0.14954762
57	0x3dfd0d5e	0.12356065
58	0xbd3caecb	-0.046065133
59	0xbdb36e49	-0.087612696
60	0xbb12cfcd	-0.002240169
61	0x3dc639a9	0.096789666
62	0xbdc456e4	-0.095868856
63	0x3dff4376	0.12464039

arith.constant2 f4 [32]
0	0x3d5bcd9c	0.05366288
1	0x3d8c10db	0.068391524
2	0x3e14db0a	0.14536682
3	0x3d271eeb	0.04080097
4	0x3d00ddc4	0.031461492
5	0x3d878cfd	0.06618688
6	0x3abe11d1	0.0014501159
7	0xbd52e8f2	-0.051491685
8	0x3d81d2a1	0.063390024
9	0xbd739fa5	-0.05947842
10	0x3e154ff1	0.14581276
11	0x3e09b32b	0.13447253
12	0x3e0ced52	0.13762406
13	0xbd39c18c	-0.045350596
14	0x3de56e0d	0.11202631
15	0x3d41846f	0.04724544
16	0x3db0b611	0.086284764
17	0xbd60b2bc	-0.054857954
18	0x3da2dfe3	0.07952859
19	0xbcafb11f	-0.021446763
20	0x3cec4799	0.028842734
21	0x3c29efa0	0.010372072
22	0x3ceeb972	0.029141162
23	0x3de306c5	0.110852756
24	0xbd4c3ea1	-0.049864415
25	0x3d945dd8	0.07244462
26	0xbe2669ed	-0.16251345
27	0x3c1ac753	0.009446937
28	0xbda1c3e8	-0.07898694
29	0x3d43ddc3	0.04781891
30	0x3de12841	0.10994006
31	0x3e1a5397	0.1507095

arith.constant4 f4 [1, 32]
0	0xbe4db834	-0.20089799
1	0x3ec0c236	0.3764817
2	0xbe7e4b77	-0.24833475
3	0xbeeb9d42	-0.46018416
4	0x3eb006c0	0.3438015
5	0x3e80950e	0.2511372
6	0x3efdbdd9	0.49558905
7	0x3ec5ecb3	0.3865715
8	0x3f049c48	0.51800966
9	0x3f2e6fe6	0.68139493
10	0xbe81a954	-0.253245
11	0xbe97caba	-0.29646856
12	0xbe76dcbb	-0.2410764
13	0x3efc2b2c	0.49251688
14	0xbe7442f7	-0.2385367
15	0xbead965a	-0.33903772
16	0xbe278bae	-0.16361877
17	0x3e2a98ea	0.16659895
18	0xbec444cd	-0.3833374
19	0x3ec19f74	0.37816966
20	0x3eaad28f	0.33363768
21	0x3ebfc45f	0.37454507
22	0x3ebd19c7	0.3693373
23	0xbead3e0c	-0.338364
24	0x3ea967a6	0.3308689
25	0xbe9b8520	-0.30375004
26	0x3ec5100c	0.38488805
27	0x3f03ea22	0.51529133
28	0x3efaa95c	0.48957336
29	0xbefd2178	-0.49439597
30	0xbeea5575	-0.45768324
31	0xbed25b7c	-0.41085422

tfl.pseudo_qconst i1 [32, 64]
0	0xbf	-65
1	0x5f	95
2	0x32	50
3	0xc5	-59
4	0x49	73
5	0x47	71
6	0x09	9
7	0xc7	-57
8	0x37	55
9	0x02	2
10	0x32	50
11	0x28	40
12	0x30	48
13	0xfc	-4
14	0xf0	-16
15	0xbc	-68
16	0x1d	29
17	0x00	0
18	0x52	82
19	0xf3	-13
20	0x1c	28
21	0x1e	30
22	0x46	70
23	0xac	-84
24	0x13	19
25	0xf3	-13
26	0x12	18
27	0x41	65
28	0x03	3
29	0x1c	28
30	0xbb	-69
31	0xcc	-52
32	0x30	48
33	0x31	49
34	0x0f	15
35	0x1f	31
36	0xcd	-51
37	0xe1	-31
38	0x2c	44
39	0x3c	60
40	0x1f	31
41	0x3b	59
42	0x5d	93
43	0xc1	-63
44	0xe3	-29
45	0xcb	-53
46	0x2d	45
47	0x4a	74
48	0x17	23
49	0x1e	30
50	0xd8	-40
51	0xcf	-49
52	0x05	5
53	0xd7	-41
54	0x64	100
55	0xf5	-11
56	0x7f	127
57	0x06	6
58	0xdf	-33
59	0x46	70
60	0xf2	-14
61	0x1b	27
62	0xd5	-43
63	0xbe	-66
64	0x24	36
65	0x0d	13
66	0x09	9
67	0xd4	-44
68	0xe1	-31
69	0xc0	-64
70	0xe4	-28
71	0x1c	28
72	0x00	0
73	0xc2	-62
74	0x1f	31
75	0xec	-20
76	0xd0	-48
77	0x2c	44
78	0xb8	-72
79	0x05	5
80	0x01	1
81	0x15	21
82	0xe7	-25
83	0xc3	-61
84	0xee	-18
85	0x39	57
86	0xea	-22
87	0x3d	61
88	0x08	8
89	0x0b	11
90	0x0b	11
91	0xdf	-33
92	0xd8	-40
93	0x05	5
94	0xfc	-4
95	0xa5	-91
96	0xfe	-2
97	0xec	-20
98	0xf4	-12
99	0xd8	-40
100	0x22	34
101	0xf4	-12
102	0x25	37
103	0x43	67
104	0x1b	27
105	0xde	-34
106	0xd0	-48
107	0x29	41
108	0xc8	-56
109	0xe8	-24
110	0x1a	26
111	0x17	23
112	0x1b	27
113	0xf6	-10
114	0x2c	44
115	0xec	-20
116	0x14	20
117	0xff	-1
118	0x8c	-116
119	0xd4	-44
120	0x81	-127
121	0x2d	45
122	0x47	71
123	0xf1	-15
124	0x9e	-98
125	0x44	68
126	0x32	50
127	0x0c	12
128	0x47	71
129	0x26	38
130	0x49	73
131	0x21	33
132	0x1b	27
133	0x27	39
134	0x1e	30
135	0x61	97
136	0xb3	-77
137	0x54	84
138	0x44	68
139	0x15	21
140	0x1d	29
141	0x1d	29
142	0xe4	-28
143	0x3f	63
144	0xcf	-49
145	0x13	19
146	0x3a	58
147	0x62	98
148	0xa1	-95
149	0xfa	-6
150	0x2c	44
151	0xb3	-77
152	0x5f	95
153	0x2d	45
154	0x16	22
155	0x76	118
156	0xc3	-61
157	0xae	-82
158	0x3f	63
159	0xfb	-5
160	0x09	9
161	0x06	6
162	0x50	80
163	0xb2	-78
164	0x99	-103
165	0xaa	-86
166	0x7f	127
167	0x69	105
168	0x7e	126
169	0x37	55
170	0xf8	-8
171	0x31	49
172	0x73	115
173	0xda	-38
174	0xac	-84
175	0x75	117
176	0x09	9
177	0x2a	42
178	0xd3	-45
179	0xb0	-80
180	0x0d	13
181	0xee	-18
182	0x7e	126
183	0x56	86
184	0x08	8
185	0x1d	29
186	0x04	4
187	0x45	69
188	0x51	81
189	0xce	-50
190	0xe9	-23
191	0x29	41
192	0x9e	-98
193	0x52	82
194	0x10	16
195	0xbb	-69
196	0x72	114
197	0x4a	74
198	0xef	-17
199	0x2b	43
200	0xb3	-77
201	0x44	68
202	0x7f	127
203	0x09	9
204	0xf8	-8
205	0x28	40
206	0xc9	-55
207	0xfa	-6
208	0x1f	31
209	0x28	40
210	0x27	39
211	0x56	86
212	0xc0	-64
213	0x16	22
214	0x25	37
215	0xd0	-48
216	0x5d	93
217	0x1a	26
218	0x12	18
219	0x48	72
220	0x27	39
221	0xff	-1
222	0x3b	59
223	0xd9	-39
224	0x3f	63
225	0xeb	-21
226	0x9e	-98
227	0xbf	-65
228	0xb1	-79
229	0xbc	-68
230	0x26	38
231	0x4c	76
232	0x4c	76
233	0xc6	-58
234	0x43	67
235	0x27	39
236	0x42	66
237	0xd9	-39
238	0xe7	-25
239	0x56	86
240	0x35	53
241	0xe0	-32
242	0xaa	-86
243	0xa1	-95
244	0xcd	-51
245	0x16	22
246	0x11	17
247	0x01	1
248	0xf6	-10
249	0x27	39
250	0x18	24
251	0xb4	-76
252	0x49	73
253	0x1d	29
254	0xf8	-8
255	0x51	81
